rl_gym/continous_actions/BipedalWalker/model/TD3_BipedalWalker-v3_0_actor.pth (torch, 528986 bytes, 6 tensors)

layer_1.weight f4 [400, 24]
000000 73 e5 ed 3e f8 e7 52 3c 32 fe ea bd 55 46 54 3f
       0.46464118 0.0128726885 -0.11474265 0.8291982
000010 0d f0 58 be bd c6 92 be fc 90 04 3f 9f fa 2a 3f
       -0.21185322 -0.2866725 0.5178373 0.6678867
000020 96 87 58 bf 2e a6 9b bd bb 8d 47 3e 44 2d 4e bf
       -0.8458189 -0.07600056 0.1948766 -0.8053782
000030 87 af b6 be 08 92 ce be 71 27 88 be 16 fb 34 be
       -0.35680792 -0.40345788 -0.2659259 -0.17673907
000040 48 c4 da bd dd e0 87 bd 42 5c a9 be fd 6d 91 be
       -0.10681969 -0.06634686 -0.330782 -0.28404227
000050 b3 10 01 be 5a 80 7b bd 0e 32 b7 be 47 2e 60 be
       -0.12604026 -0.061401702 -0.35780376 -0.21892653
000060 75 a6 9a bf 9b ad a7 bf cd 89 bd 3f 10 03 cc bf
       -1.2082049 -1.3099855 1.4807678 -1.5938435
000070 62 30 4c bf 1a f3 ea 3d 86 23 95 3e a9 af 8b bb
       -0.79761326 0.11472149 0.29128665 -0.0042628837
000080 52 73 03 3e c0 77 04 bd 0a c2 f3 bd 44 df be bd
       0.1283696 -0.032340765 -0.119022444 -0.09319928
000090 7b 9a db bd a1 8e dd 3d 23 0f 27 be 1c 62 1e be
       -0.10722824 0.1081822 -0.16314368 -0.15467113
0000a0 3b 53 77 be cc 0d b5 be d2 17 58 be 39 5b dc be
       -0.24152844 -0.3536209 -0.21102837 -0.43038347
0000b0 3c a1 c3 be 71 9c a8 be 76 07 8c 3c c4 c5 ec 3e
       -0.3820895 -0.32931855 0.017093401 0.46244633
0000c0 d0 a0 03 3f 25 32 31 40 62 30 63 bf d4 87 16 40
       0.51417255 2.7686856 -0.887457 2.3520403
0000d0 a8 54 35 bd 66 0f 0b be f3 37 1a 3f ce 0e a8 bb
       -0.044270188 -0.13580093 0.6024162 -0.005128718
0000e0 ea 5b e9 bc 43 4a ec be d1 b1 5b be d8 78 60 bf
       -0.02848621 -0.46150407 -0.2145455 -0.8768439
0000f0 1f b2 5a bd ea a4 0f bf 13 3c 84 3e d2 85 de 3e
       -0.053392526 -0.56111014 0.25827083 0.43461472
000100 4a d5 f7 3e 1a 47 b3 3e 2e 95 c4 3e 99 ba d4 3e
       0.48404914 0.35015184 0.38395065 0.41548613
000110 b2 57 fa 3e 12 25 11 3f 29 c1 88 bd ec 51 30 be
       0.4889503 0.5669719 -0.066774674 -0.1721875
000120 7b b1 80 3e 15 e0 b2 be 76 58 9f bf 61 ad 05 bf
       0.25135407 -0.34936586 -1.2448871 -0.5221768
000130 c5 de 37 be 47 b7 8c 3e 13 50 e7 bd 26 86 23 3d
       -0.17956074 0.2748358 -0.1129457 0.039922856
000140 6c 8a 40 be 8a 49 c7 3e 2c 22 3e 3f 56 23 84 bf
       -0.18802804 0.38923293 0.7427089 -1.0323284
000150 bc 03 bd be e7 4b 32 3f 0a 81 4f be 3c 46 89 be
       -0.36916912 0.6964707 -0.20264068 -0.26811397
000160 f6 65 cf bd 4d 29 9c be 5a 85 ea bd 55 35 c6 bd
       -0.101268694 -0.3050026 -0.11451216 -0.09678141
000170 8f 8c 87 bd ed 78 24 be 41 7c cc be 5d c2 e5 be
       -0.06618606 -0.16061755 -0.39938548 -0.4487485
000180 ea de af 3e 54 9a 1f 40 80 9d 32 c0 75 72 6e 3e
       0.34349757 2.4937944 -2.790863 0.2328585
000190 c4 fe 82 bf b6 8a d5 3e e7 b2 4a bf b8 84 87 3e
       -1.0233998 0.4170739 -0.79179233 0.26468444
0001a0 bb 5b 0e 3f 33 43 56 3f 85 72 11 3f 81 48 8a be
       0.5560872 0.8369629 0.5681537 -0.2700844
0001b0 37 ff cb 3e a0 8f 15 3f 66 8c 9e be 0e c7 ce bd
       0.3984315 0.5842228 -0.3096649 -0.100965604
0001c0 dd fb ad be ad 27 cc bc 14 5b 82 bd fa e2 bb be
       -0.3398122 -0.024921263 -0.06365028 -0.36696607
0001d0 fd bf 76 be cf 20 39 be 55 d6 2c be 03 c4 5d be
       -0.24096675 -0.18078922 -0.16878636 -0.21656804
0001e0 9a c3 a3 3e 72 e9 84 40 3c 5a 81 3f b9 14 ff 3f
       0.3198517 4.1534967 1.0105662 1.9928199
0001f0 15 c6 31 bf 86 a7 81 3e 0a ac 81 bf 19 8c ca be
       -0.69442874 0.25323123 -1.0130627 -0.3956001
000200 19 b5 9f be 4c 2d ba 3e 92 e7 c1 3e d2 48 bc 3e
       -0.31192854 0.36362684 0.37871987 0.36774307
000210 d1 2d 39 3c 72 03 89 bd af 4d ab 3e 56 31 32 3e
       0.011302427 -0.0669011 0.33457705 0.17401633
000220 e5 10 4e 3e 2f 7f 37 3e 3a 10 7a 3e cb 07 ae 3e
       0.20123632 0.1791961 0.24420252 0.3399032
000230 f7 ba d6 3e a5 55 c3 3e 02 73 2a 3e 4b 56 dd be
       0.41939518 0.3815128 0.16645434 -0.432299
000240 3c aa 87 be 34 33 8b bf f9 df 29 bf b4 70 e1 3e
       -0.26497066 -1.0875001 -0.6635738 0.44031298
000250 0f b4 9b bf 8d 7a 68 be 3c 7c 84 bf af 2e 15 be
       -1.2164325 -0.22703 -1.0350413 -0.1456859
000260 c3 73 c9 3e a6 40 30 3f 70 eb 9c 3e 50 26 85 bf
       0.39346132 0.68848646 0.30648375 -1.0402317
000270 2b 13 89 be e5 d0 b3 bf 69 cc a0 be d5 f8 b4 be
       -0.26772436 -1.4048125 -0.31405953 -0.35346094
000280 40 1c a1 be 33 90 a4 be fa 88 f0 be 90 0c ef be
       -0.31466866 -0.32141265 -0.46979505 -0.46689272
000290 39 55 a9 be c3 bf 9a be a0 5b a8 be ba de 89 3d
       -0.33072832 -0.30224428 -0.32882404 0.06731935
0002a0 e2 58 0f bf c8 c8 86 c0 34 bb 53 bf 0f f0 c6 40
       -0.55995 -4.2120094 -0.82707524 6.216804
0002b0 ea 00 24 bf bd 4a 01 3d 81 fe ff be 0a 5d 49 3e
       -0.64063895 0.031565417 -0.4999886 0.19664398
0002c0 bf d7 95 be ac 2f 03 bf b7 5c a5 3c e6 b9 70 be
       -0.29266164 -0.51244617 0.020185811 -0.23508415
0002d0 ea 14 b7 bd 53 bf 26 be f6 fb c6 3e 21 7d 9a 3e
       -0.08939536 -0.16283922 0.38864106 0.3017359
0002e0 9c f4 b0 3e 7c 38 a8 3e 41 9c 5e 3e 0e b1 72 3e
       0.34561622 0.32855594 0.21739294 0.23700354
0002f0 78 d1 03 3e 87 48 d9 3e 77 d2 93 3e 92 67 fb bc
       0.12872875 0.42438146 0.2887151 -0.030689035
000300 33 b6 d0 be 8e b0 0a 3f 21 3f 08 c0 be 66 07 bf
       -0.40764007 0.5417565 -2.128853 -0.5289115
000310 2f f8 70 3e e4 42 4b 3f 5c 01 2a 3f a4 d7 99 3c
       0.23532175 0.7939894 0.66408324 0.018779583
000320 f6 b5 9f 3e c9 0f 8e 3e 41 92 d5 bd d9 17 19 bf
       0.31193513 0.27746418 -0.10428286 -0.59802014
000330 3c a3 19 3e 70 52 5c bf c5 56 db be bd 68 33 be
       0.15003675 -0.8606329 -0.42839637 -0.17520423
000340 05 47 87 be 96 4f 9b be 54 02 a4 be a4 b6 b2 be
       -0.2642137 -0.30334157 -0.32033026 -0.3490497
000350 f4 c7 8b be 76 3d af be 05 1e 74 be 0f ef 3f be
       -0.2730099 -0.34226578 -0.23839577 -0.18743537
000360 20 5c 4b bf 98 c6 22 bf 98 1c 93 3f fc bf d1 3f
       -0.79437447 -0.6358428 1.1493101 1.6386714
000370 5e a8 fc be c8 4b 86 3e cc 43 a5 3e 5b 9b d7 bd
       -0.49347204 0.26229692 0.32278287 -0.105276786
000380 7f a2 d1 3e 39 75 5f 3e ad 67 97 be 5b 1b ff be
       0.40944287 0.2182206 -0.29571286 -0.49825558
000390 66 c9 55 be bd 86 9e bf a0 8b 62 3d 2e 91 63 3e
       -0.20877609 -1.2384869 0.055308938 0.2222335
0003a0 ad e1 9a 3d f4 11 6d 3e fb 28 36 3e a6 00 97 bd
       0.075625755 0.2315138 0.1778907 -0.073731706
0003b0 47 ff 13 3e fb 8e aa bd 17 05 eb bd d6 aa d8 bd
       0.1445285 -0.083280526 -0.1147558 -0.10579459
0003c0 b6 cb 89 3d 18 00 83 3f cf 32 b5 bf ea 8f df 3d
       0.06728308 1.0234404 -1.415613 0.10916121
0003d0 4e 7d e9 3d 9b 09 4c 3e 82 be 12 3f 7b ae cf be
       0.11400853 0.19925539 0.5732194 -0.40562806
0003e0 0d d6 71 3e 06 d4 e2 be f0 09 16 bf 93 8b 82 be
       0.2361681 -0.44302386 -0.58608913 -0.25497112
0003f0 d5 89 71 bc 89 bd 5b bd 24 e8 31 bf 98 8a 26 bf
       -0.014742334 -0.05364755 -0.69494843 -0.6505523

layer_1.bias f4 [400]
000000 66 5c 25 be 20 74 c6 3e 1c bf 04 be b5 9f 1a be
       -0.16148528 0.3876047 -0.12963527 -0.15099986
000010 dd 58 91 be ae 15 da be c3 ba 74 bd 01 3d b7 be
       -0.2838811 -0.42594665 -0.059748422 -0.3578873
000020 d8 42 cd be 87 be bc be 0d a6 c6 be 50 81 11 bf
       -0.4009006 -0.3686411 -0.38798562 -0.5683794
000030 83 a4 8a 3d cb 05 11 be 38 c1 d7 be 8e 1c 8d be
       0.06769659 -0.14162366 -0.42139602 -0.27560848
000040 10 c7 31 bc d3 e1 bd bd ab 82 8a 3c 47 3e 0f be
       -0.010850683 -0.09271588 0.01690801 -0.139886
000050 61 03 da be 68 06 5b be 72 e6 65 3e be a7 e6 be
       -0.42580703 -0.21389163 0.22451189 -0.45049852
000060 35 de c4 be 19 8f d0 be fd bb bc bd 5e b2 2d 3e
       -0.3845078 -0.40734175 -0.092155434 0.16962573
000070 7c a6 47 bd f7 f4 cf be 1d db b9 3d 3f 9e 11 3d
       -0.048742756 -0.4061658 0.09074996 0.035551306
000080 d2 5a fd 3d 28 c2 a0 3d 30 c1 40 3e 58 18 a0 be
       0.12370838 0.07849532 0.18823695 -0.31268573
000090 8e c1 58 bd d5 3c 8d be 44 f8 c1 be 4f db d5 be
       -0.052918963 -0.27585474 -0.37884724 -0.41768882
0000a0 60 ed 73 be c1 5b 46 be 2c 7a de bd 29 ef d7 be
       -0.2382102 -0.19370939 -0.10863146 -0.42174652
0000b0 2c 1d a4 3d 49 7b f6 3c a8 f0 c7 bd 1d 88 b3 be
       0.080133766 0.030088084 -0.097626984 -0.35064784
0000c0 a6 97 e5 3e 05 fd a8 be ff ff 11 be eb 24 b9 be
       0.4484226 -0.3300554 -0.14257811 -0.3616098
0000d0 69 af c8 3d 20 40 83 3d 80 4c 2c bc 7d 44 2b bf
       0.09799082 0.06408715 -0.010516286 -0.6690138
0000e0 05 10 fa be a7 16 ce bc 02 4d 1f bd a6 96 15 be
       -0.48840347 -0.025157286 -0.0388918 -0.14608249
0000f0 03 ec 9a be aa 77 26 be d9 0d 5c be 61 7f 16 3e
       -0.30258188 -0.16256586 -0.21489657 0.14697029
000100 e1 fb 99 be d4 ac fc bc 25 86 ed be 1e 38 46 be
       -0.3007498 -0.03084413 -0.46391407 -0.19357345
000110 f6 6d 0c bd c3 6c 0a bf a0 4b 9c be 58 ba a2 be
       -0.034284554 -0.5407221 -0.30526447 -0.31782794
000120 bd 68 a3 3d 56 bf 32 be 00 ad f8 be 03 c0 15 be
       0.079789616 -0.17455801 -0.4856949 -0.14624028
000130 2d 1e b0 be a3 07 01 bf 0a 50 9b 3e 5e 63 87 3e
       -0.34398022 -0.5040228 0.30334502 0.26443
000140 6c eb 61 bd 0a 6d da be 97 ad a7 be b9 c2 94 be
       -0.055156156 -0.42661315 -0.32749626 -0.29054812
000150 25 c6 2a be 82 a5 91 3c 07 e8 4b bd 21 32 e7 be
       -0.16677149 0.017779116 -0.049781825 -0.45155433
000160 f8 2c 73 be 84 ff 6b 3e 4f 86 95 be bd df 4d be
       -0.23747623 0.2304669 -0.29204032 -0.2010488
000170 77 d8 24 bd e8 0e 45 be f0 5c 06 bf ee 3e 1f be
       -0.0402455 -0.19243968 -0.5248556 -0.1555135
000180 04 9f e7 be a0 1b 00 3c 16 2b 0c be 86 69 3b 3d
       -0.45238507 0.007819086 -0.13688311 0.045754932
000190 ba d9 72 3e 22 11 24 be a4 38 0b bf 61 60 84 3e
       0.23715869 -0.1602216 -0.543833 0.2585478
0001a0 4d ce fa be 42 70 c2 3e 3b ab 8d bb 3a 2a 0e be
       -0.4898552 0.3797627 -0.004323391 -0.13883296
0001b0 ad 76 92 bd af 2d 54 3e 84 6a 80 be 61 d1 86 be
       -0.07151542 0.20720552 -0.25081265 -0.26331618
0001c0 da dd 99 be 58 d5 a9 3c 2f 1a 17 be 57 e8 a0 be
       -0.30052072 0.020731613 -0.14756082 -0.3142726
0001d0 25 ac 69 bf b1 26 e4 bd d8 bf 20 be 5c 7e f0 be
       -0.91278297 -0.11140192 -0.15698183 -0.46971405
0001e0 d1 b4 72 be d7 f1 00 bd b5 0d ab be f0 de 8e be
       -0.23701788 -0.031480636 -0.33408895 -0.27904463
0001f0 4e 50 04 be 0b df 4d be 72 e1 8b bd 90 b7 74 bd
       -0.12921259 -0.20104615 -0.0683011 -0.05974537
000200 98 62 da be 6d 17 9a 3d 5b ec 7b be a9 9d a7 be
       -0.42653346 0.07523999 -0.24601881 -0.32737473
000210 10 26 71 3d 8f 08 12 be bd 55 ea be 6f b2 41 be
       0.05887419 -0.14261077 -0.45768538 -0.18915723
000220 50 9b a1 3c 3d 07 8b be ac 0d aa bd 23 f0 96 be
       0.01972738 -0.2715396 -0.08303389 -0.29480085
000230 25 6f af be 24 b4 04 bc c6 06 a1 3e 4b 0a a1 be
       -0.34264484 -0.0080995895 0.3145048 -0.31453165
000240 f6 ca 15 be b8 6f ed bd 8c 79 5a be 1d db a9 be
       -0.14628205 -0.11593574 -0.21335429 -0.33174983
000250 26 70 91 be 01 8c b7 3c c8 30 69 be 33 07 81 be
       -0.28405875 0.022405626 -0.22772515 -0.25200805
000260 07 f5 7d 3d b5 31 9d bd 3d 30 a0 bd d1 a6 8f be
       0.062001254 -0.076754965 -0.07821701 -0.28056958
000270 55 6b 70 be 77 d7 ff be b5 79 95 be 0b b3 84 be
       -0.23478444 -0.49969074 -0.29194418 -0.2591785
000280 8c 26 94 3e a7 13 ff be c1 9a 01 be c2 8e ab be
       0.2893566 -0.4981968 -0.1265669 -0.33507353
000290 b9 bc 24 be 61 13 7d be db 1d 83 be 0b 23 35 be
       -0.16087617 -0.24714424 -0.25608715 -0.17689149
0002a0 40 aa 48 be f7 55 57 3d 68 14 a4 be 4c 35 48 be
       -0.19596195 0.052572217 -0.3204682 -0.19551581
0002b0 40 97 d0 bb 61 5e ea bc b6 10 a5 3d 4c 0c ad be
       -0.0063656867 -0.028609456 0.08059828 -0.33798444
0002c0 c7 4c 97 be 8f 2b 4c be fa 15 1a be c7 83 a3 be
       -0.29550764 -0.19938491 -0.15047446 -0.31936476
0002d0 f7 64 ff 3d 6e fc 0e bf 96 25 d8 be 1f b2 c7 be
       0.124704294 -0.5585393 -0.42216176 -0.39003083
0002e0 24 e3 1f bf a8 8c a3 be a7 f2 67 be 98 0a 86 be
       -0.62455964 -0.3194325 -0.22651158 -0.26179957
0002f0 84 58 0d be 65 19 49 be 78 d6 17 3d 52 16 01 bf
       -0.13803297 -0.19638593 0.037069768 -0.50424683
000300 bb c9 a5 be dd c9 5f bd ce ef cb 3d b8 7e 0a 3e
       -0.3238047 -0.05463587 0.099578485 0.13524902
000310 14 3b af bd 43 55 b1 be 61 0f a2 be 62 31 89 be
       -0.0855619 -0.34635362 -0.31652358 -0.2679549
000320 f8 e3 5f bd 18 83 10 3d 21 70 b6 be 8c 5a 2f be
       -0.054660767 0.03528127 -0.35632423 -0.17124385
000330 2b fc 4b be 24 7a d0 be 29 e2 93 be bb e5 e8 bd
       -0.19920413 -0.40718186 -0.28883484 -0.113719426
000340 21 3f c3 3e 0f 2c db be 56 7e b0 be 99 38 af bd
       0.381341 -0.42807052 -0.34471387 -0.08555717
000350 2b d8 b9 be 9e 51 91 3e ad 27 7c be a4 51 1c be
       -0.36297736 0.2838258 -0.2462451 -0.15265518
000360 67 d4 a3 be 19 94 60 be 58 73 5c be dd c0 c3 be
       -0.31997988 -0.21931495 -0.21528375 -0.3823308
000370 c9 16 8a be e3 6b 39 bd 0f ba 81 be d3 d3 cc be
       -0.2697051 -0.045268904 -0.25337264 -0.4000536
000380 24 63 11 be 68 3f 4d be 1f 7b 12 3e 9a 51 80 be
       -0.14197975 -0.20043719 0.1430478 -0.25062257
000390 f1 aa 8e 3d 3d 69 b5 be 61 70 fe be a9 09 c5 be
       0.06966198 -0.35431853 -0.49695113 -0.38483933
0003a0 53 63 88 be c8 fb 76 3d ce 6c 76 be e9 c3 45 3e
       -0.26638278 0.06029871 -0.24064943 0.19313015
0003b0 da 22 00 bf 15 13 5e bd 50 fc 32 bd 15 7f 6f be
       -0.5005318 -0.054217417 -0.043697655 -0.23388322
0003c0 ac fe df be c5 c6 a7 bd 89 74 33 be 63 7c b2 be
       -0.43748987 -0.08192209 -0.17524923 -0.34860525
0003d0 a7 46 a4 3e 2e df b1 bd c0 8f 7d be 03 d8 48 be
       0.32085153 -0.08685146 -0.24761868 -0.19613652
0003e0 84 65 b1 be 75 74 12 be 32 e4 8d be 54 7e d4 be
       -0.34647763 -0.14302237 -0.27713162 -0.4150263
0003f0 ac 19 91 be 75 29 fd 3b 40 2c 62 be 45 3c 78 be
       -0.283399 0.0077258893 -0.22087193 -0.24241741

layer_2.weight f4 [300, 400]
000000 71 0e 0d 3d a5 d3 b6 bc a6 d2 1c bd 3a 60 0e bd
       0.0344376 -0.022317717 -0.038286828 -0.034759738
000010 66 57 02 bb 61 a4 9e 3b 04 2f 69 bd 29 16 c0 bc
       -0.001988852 0.004841373 -0.056929603 -0.023448067
000020 80 81 2f bc ac 8d b9 3c fe 21 de bc 97 92 18 bd
       -0.010712028 0.022650562 -0.027115818 -0.037249174
000030 6d e0 02 bd 68 87 3a bb ad 27 34 bb 90 c9 21 3c
       -0.03195231 -0.0028462056 -0.002748947 0.009874716
000040 4d 64 73 bd a7 76 2e 3c e1 b5 86 3c a6 c5 1a 3a
       -0.059421826 0.010648406 0.016444148 0.00059040857
000050 fb 0b fc 3b 56 17 35 bc e7 ad d2 3b 5f 09 79 bb
       0.007691858 -0.011052927 0.006429422 -0.003799997
000060 bb 3f 2f bd 03 a1 ce bc 00 5a 01 b9 8c 9f 72 bd
       -0.042785387 -0.02522326 -0.00012335926 -0.059234187
000070 a0 a0 cc bc e0 12 bc b9 c8 a8 36 3b c2 19 96 bd
       -0.024978936 -0.00035872217 0.0027871598 -0.07329132
000080 82 89 44 bd 55 97 8c bc 9d e7 60 bd 12 32 16 bd
       -0.0479827 -0.017162004 -0.054908384 -0.036668845
000090 e7 a8 3c bc 94 02 9b bb e3 9a 4d bd 93 ba 92 bc
       -0.011514879 -0.004730532 -0.05019654 -0.017911231
0000a0 0b d7 cc bc 20 a6 02 bc 76 66 3c bd af ed 26 3d
       -0.025004884 -0.007974178 -0.045996152 0.040754016
0000b0 d0 a1 f5 bc 5d 4f 46 bc 20 e1 48 bd 89 57 52 bc
       -0.029984385 -0.012103883 -0.04904282 -0.012838253
0000c0 71 3e 2b bd e2 f0 59 bd 07 92 53 ba 34 6d 25 bd
       -0.041807596 -0.05320824 -0.0008070771 -0.040387347
0000d0 fa 03 3f 3c 2d ee 90 39 c8 c7 44 bc d7 cb 0d ba
       0.011658663 0.00027643275 -0.012010522 -0.00054090976
0000e0 45 48 5b bd 32 af ac bc 29 4d 5b bd 5a 5f 24 3d
       -0.05353572 -0.021079633 -0.053540383 0.040129997
0000f0 8c 04 43 bc da 48 84 3b 9c 7d 1a 3d 6d e2 4c bd
       -0.0119029395 0.004037005 0.037717447 -0.050020624
000100 a8 1f f8 bc 27 6e 09 37 0f f5 5c bd 60 e4 8c 3b
       -0.030288532 8.191483e-06 -0.053944644 0.0042996854
000110 0c 7c 2b bc 7e 63 53 bd 17 18 43 bd 10 b5 31 bd
       -0.010466587 -0.051608555 -0.047630396 -0.043385565
000120 88 40 08 bd 1b 0c 01 3d d4 a0 6d 3c 52 dc a8 bd
       -0.033264667 0.031505685 0.014503676 -0.08245148
000130 83 09 d6 3b a6 cb 34 bd 85 70 25 3c a2 05 af 3c
       0.0065318956 -0.044139527 0.0100976275 0.02136499
000140 39 d7 5c bd bd db 2d bd 84 ed 9e bd 3d 38 26 bc
       -0.05391619 -0.042445887 -0.07760146 -0.010145244
000150 fc d2 27 3c 98 a6 9e bd 35 63 b1 bb c4 61 5b bd
       0.010243174 -0.07746619 -0.0054134377 -0.053560033
000160 83 1e 0d 3b cd ae 6e bd 4a 37 0b bd c4 53 72 bc
       0.002153308 -0.05827217 -0.033988275 -0.014790479
000170 1d 71 3e bd 92 3a 04 3d 1f e9 52 bd 80 c8 b7 bc
       -0.046494592 0.03228242 -0.051491853 -0.022434473
000180 e5 9b 5d bd 63 a4 1d ba 65 04 ef bc 1c 2f e3 3c
       -0.05410375 -0.000601357 -0.0291769 0.027732424
000190 3a 3d 60 bd 47 8e 02 bd b0 3f 83 bd 61 d6 50 bd
       -0.05474589 -0.031873967 -0.06408632 -0.050985698
0001a0 56 08 60 bd 77 7c 3a bd 77 41 ac 3c c8 ab 63 bc
       -0.05469545 -0.045528855 0.02102731 -0.013895936
0001b0 f4 d9 5c bd 0d 81 1d bd a5 d8 15 bc f6 2a 96 bd
       -0.053918794 -0.03845315 -0.00914589 -0.07332413
0001c0 ad 1e 01 bd 52 ab 2f 3c fb 8d 43 3c ed 19 4f bd
       -0.031523395 0.010721998 0.011935706 -0.050561834
0001d0 22 46 d7 ba d4 25 3e bd e7 43 98 bd a6 54 05 bd
       -0.00164241 -0.046422794 -0.07434826 -0.03255143
0001e0 e9 1e 33 3d e2 a9 13 bd 05 15 d7 3c be c0 57 bd
       0.04373065 -0.036050685 0.02625514 -0.052674048
0001f0 2a a9 50 bc 83 49 20 3d f0 9b 89 bc 77 8b 6a bd
       -0.012735644 0.039132606 -0.01679799 -0.05726191
000200 e1 89 ef bc a5 bf 9b bd 8f d2 15 3c 1f a7 92 bd
       -0.02924055 -0.07604913 0.009144439 -0.07160782
000210 b3 d5 93 bd 2a 38 12 3d 96 b9 fc 3c 50 50 76 bd
       -0.07218494 0.035698093 0.030850213 -0.060135186
000220 90 72 fd bb 72 ae 9c bc 6f 45 58 bb 5a df 5e bd
       -0.007734604 -0.01912615 -0.003300037 -0.054412223
000230 2d 48 ae bd 86 b8 9a 3c 74 37 9c bb 1a fa c8 bc
       -0.0850986 0.018886816 -0.0047673527 -0.02453332
000240 bd cd 39 bc b9 2a 2a 3c b9 8b 28 bd 19 2a 94 3c
       -0.011340556 0.010386162 -0.041148875 0.01808648
000250 88 19 96 3c 91 19 aa bc 36 85 2f bd 93 fc ab 3c
       0.018322721 -0.020764144 -0.04285165 0.02099446
000260 75 34 bd 3c b9 2e 67 bd 94 25 ae bd d6 a9 10 bc
       0.023096303 -0.056441043 -0.08503261 -0.008829555
000270 8c 86 41 bd cb 5f d7 bc d4 3c 0b 3d f6 85 f4 3b
       -0.047247455 -0.026290795 0.033993557 0.0074622585
000280 f5 d5 ca 3c 29 17 5c bd 95 76 5b 3c 24 b4 81 3c
       0.024760226 -0.053733025 0.013394971 0.015832968
000290 53 28 54 bd fd 74 cc bb c8 d8 5b bd ef cd 2c 3c
       -0.05179627 -0.006239532 -0.053673536 0.010547145
0002a0 75 dc 7e bd 26 9a 46 3d 22 a8 ca bd 66 93 2c bd
       -0.062221963 0.04848685 -0.0989535 -0.042132758
0002b0 d2 86 fc 3c f8 ec 0d bd 08 7b 23 3b b8 00 0f 3d
       0.030826006 -0.03464982 0.0024945159 0.034912795
0002c0 12 d0 3c 3b ea 02 37 bd 42 48 1b bd 61 74 0b bd
       0.0028810543 -0.044680513 -0.037910707 -0.034046534
0002d0 ad ff 8f bd 91 a9 2d bc b3 8a ed 3b 40 a3 93 bb
       -0.07031188 -0.01059951 0.0072492003 -0.004505545
0002e0 de ed c8 3b 46 5b aa 3c 39 92 af bb 36 25 05 bd
       0.0061318716 0.020795476 -0.0053580073 -0.03250619
0002f0 e3 d9 72 bc 8a 37 9e 3c f4 54 9f bc a1 e8 0d bd
       -0.014822456 0.019313592 -0.019449688 -0.03464568
000300 6f 21 f6 3c 6a 0a 24 3d c2 ae 27 3d 1d f0 18 bc
       0.03004524 0.040048994 0.040938146 -0.009334591
000310 35 03 d8 bc 6a 95 28 3d 7d 2b 81 bd da ba af 3b
       -0.026368717 0.041158117 -0.06307123 0.0053628506
000320 b6 58 15 bd 6c 70 9d bc 15 2e 64 bd 64 6d ce 3c
       -0.036461554 -0.019218646 -0.05570801 0.025198646
000330 ec 51 e7 bc e9 54 f0 bc 0d ad 9c bc e1 73 18 bc
       -0.028237306 -0.029337363 -0.019125486 -0.009304971
000340 14 7d 3a bb fd 92 40 bd d9 5d 50 bd 73 c3 7c bc
       -0.00284559 -0.04701518 -0.05087075 -0.015427458
000350 78 91 36 bc 01 b6 55 bd c1 4f 25 bd 76 2a b9 bc
       -0.011143081 -0.052175526 -0.040359262 -0.022603255
000360 d5 12 3a bd 4f 3f 79 bd 39 d3 1b bd 17 6d 31 bd
       -0.045428116 -0.06085139 -0.038043234 -0.043316927
000370 45 02 02 bd fb fd d3 3c 0d fc a9 bd 46 6a 36 bb
       -0.031740446 0.025877943 -0.08300028 -0.002783434
000380 96 82 a8 bd 3d 62 65 bd 30 18 67 bd 07 6e 1a bd
       -0.08228032 -0.05600189 -0.05641955 -0.037702587
000390 44 65 a8 bd 70 c1 cb bc 21 65 67 bd e1 de ba bc
       -0.0822244 -0.024872512 -0.05649293 -0.022811355
0003a0 b4 9f 61 3c eb ce 27 3d fe 8b 10 3d 86 e5 9b bd
       0.013770986 0.040968817 0.035289757 -0.076121375
0003b0 a5 6c 8f bd 1a c4 35 3c 5b 7a e6 3c 9c 41 b6 3b
       -0.07003144 0.011094118 0.028134516 0.0055620205
0003c0 6c fa 48 bb 46 fa 1c bd 8e 8f a8 bd cd 82 0e bd
       -0.0030666841 -0.038324617 -0.08230506 -0.03479271
0003d0 90 3b ec bc 21 2d 9c bd a9 8b 34 bd 05 be 26 bd
       -0.028836995 -0.07625795 -0.044078503 -0.04070856
0003e0 e1 c9 a5 bc 83 f8 be 3c fb 44 f5 3b 81 57 80 3b
       -0.020237865 0.023311859 0.0074850298 0.0039166813
0003f0 d2 94 89 3c f6 0c 96 3b af ec 25 bc 36 be 1e bd
       0.016794596 0.004579182 -0.010127231 -0.038755618

layer_2.bias f4 [300]
000000 1d e4 76 bd 97 8e 14 be 42 17 1b bc 0b ca 67 bd
       -0.06027614 -0.14507519 -0.009465994 -0.056589168
000010 18 17 d1 bd f5 4d 50 be f0 b0 92 bd 1f b0 8b be
       -0.10209483 -0.20342238 -0.071626544 -0.27282807
000020 7f d1 76 bd 73 9d 6e bf 71 62 22 bd 78 21 db be
       -0.060258385 -0.93209 -0.039644662 -0.42798972
000030 9d eb d8 bd 2b 2c 5e bd 2a 48 7b bd c2 e1 cb bd
       -0.10591815 -0.05424134 -0.061348118 -0.09955169
000040 28 57 b2 be 33 4c 4a be 95 22 e9 3e fc 03 92 bf
       -0.3483212 -0.1975563 0.45534196 -1.1407466
000050 9b 4e 69 bf cf ea bb be d4 15 eb be df 2b 9a 3c
       -0.9113557 -0.36702582 -0.4591509 0.018819747
000060 3c 3e fa bc 90 ef 15 bb b4 35 11 bf e1 24 29 bf
       -0.030547254 -0.0022878386 -0.5672257 -0.660719
000070 77 fc 3f bd fb 73 82 bc 01 b3 19 3c 2b 4b 54 bd
       -0.04687163 -0.015924444 0.009381057 -0.0518295
000080 3f 33 76 3d f6 f2 02 3f 22 88 29 bf f8 ee 2c be
       0.060107466 0.5115198 -0.6622335 -0.16888034
000090 d0 ab a3 be 93 f7 a3 be 91 62 c8 bc d9 70 8e bd
       -0.3196702 -0.32024822 -0.024461063 -0.06955118
0000a0 49 3b c4 bd 92 be ac 3e fc c5 e0 3e 67 9b 59 bf
       -0.0958162 0.33739144 0.4390105 -0.8500275
0000b0 a1 a8 1e 3d be 43 f8 bd 64 8b 8e bd d8 b8 dc be
       0.038735036 -0.12122296 -0.069601804 -0.43109775
0000c0 e0 d6 b9 bd 43 32 cb bc 2a 2c a3 bd 8e 7f 72 3d
       -0.09074187 -0.02480424 -0.07967408 0.059203677
0000d0 f2 78 4d bf 12 1b 69 bd fd 00 88 3e 4f 11 5d bd
       -0.8026267 -0.056910582 0.26563254 -0.053971585
0000e0 53 23 ac bd 0d 12 30 bf be 71 75 bd df d4 08 be
       -0.08405175 -0.68777543 -0.059922926 -0.13362454
0000f0 bc 04 9e 3d 39 49 2a bd a5 8f e0 bd 6a c4 1d be
       0.07715747 -0.041573737 -0.10964898 -0.15406957
000100 6e 75 c6 bd 0d 56 bd be bc de 8d bd f5 1c 2b be
       -0.09690367 -0.36979714 -0.06927249 -0.16710265
000110 ba 95 1b bd 8e 5b c3 be 91 c0 33 bd 04 a7 92 be
       -0.037984587 -0.38155788 -0.043884818 -0.28643048
000120 df 7b 2b bf 91 23 8f bd 4a 0a bb bd 80 f6 51 bf
       -0.6698589 -0.06989206 -0.09132822 -0.82016754
000130 e6 5c fc bd cc df 8e bd 89 65 a4 bc 32 17 8b bd
       -0.123224065 -0.069762796 -0.020067947 -0.067915335
000140 98 89 87 3b 82 3e f1 be bc e5 0e be 24 db d4 bd
       0.0041362755 -0.47118002 -0.13954824 -0.1039336
000150 d2 7d a3 bd fc 2a b1 be 6e 30 98 bf e2 11 db 3d
       -0.07982983 -0.34603107 -1.188978 0.1069677
000160 f8 ff d0 be 69 e0 05 bd 21 2c 66 be 9f b6 0c bd
       -0.4082029 -0.032684717 -0.22477771 -0.03435385
000170 3a 04 70 be b2 d4 07 be 42 b7 4c bf 83 e7 2a be
       -0.23439112 -0.1326473 -0.7996713 -0.16689877
000180 ad e9 12 bd a4 6f 86 be 44 6c 35 be ae f4 bd bd
       -0.03586738 -0.2625705 -0.17717081 -0.092751846
000190 a5 a2 d3 be a8 3c 78 be f5 09 6a bd ec a6 d4 bd
       -0.41335025 -0.24241889 -0.057138402 -0.103834
0001a0 09 e6 ed bd e4 ae e2 be c8 e8 72 bd 0f 2a ce bd
       -0.11616141 -0.44274056 -0.05930403 -0.10066616
0001b0 44 ff 49 be 10 31 b8 be 93 bf ec be 8b 46 89 bd
       -0.19726282 -0.35974932 -0.4623991 -0.06702908
0001c0 6d 93 44 bd dd 31 7b bd b3 ad 83 3e 7f 4e b8 bd
       -0.04799216 -0.06132685 0.2571846 -0.08999347
0001d0 d5 69 57 3d 3d bb 9c bd da 00 9d bc 1b 2a 36 bf
       0.052591164 -0.076529 -0.019165445 -0.71158
0001e0 33 41 31 bd ac c2 d7 be 51 37 b0 bd d0 f9 59 bd
       -0.04327507 -0.4214071 -0.08604301 -0.053216755
0001f0 5d 05 b2 bd 3f 20 24 be eb 56 f7 bd 6e ed 13 bd
       -0.08692429 -0.16027926 -0.12077125 -0.036115102
000200 e0 7f 44 bf 53 ad 00 bf e8 33 47 bc e7 f6 80 bd
       -0.7675762 -0.5026447 -0.0121583715 -0.06297093
000210 b4 00 3f bf 59 70 b5 bd 0d 8b b9 be 11 61 fe 3e
       -0.7461045 -0.08859319 -0.362389 0.4968343
000220 67 7e b6 be 26 a9 24 bf a1 eb 15 bd 78 5c 06 bf
       -0.35643312 -0.643206 -0.036601666 -0.52484846
000230 e4 16 8c be d8 00 87 bd 3d d0 90 bd 3a bc 48 3e
       -0.27361214 -0.06591958 -0.07070968 0.19603053
000240 17 9b bf bd f4 59 bf be 16 a3 4b be 3b 04 01 bd
       -0.09355753 -0.37373316 -0.19886431 -0.031498175
000250 31 bc 26 bf 75 ae d6 bd 6f f9 ef bc af a7 5b 3d
       -0.6513091 -0.10482494 -0.029293744 0.053626712
000260 17 af f7 3c 80 49 a3 bd 4f 2b 9b bd 36 85 a7 be
       0.030234857 -0.079730034 -0.0757662 -0.3271882
000270 10 93 3f be 87 4a e8 bd c2 3c 3c bd 75 0e 26 3f
       -0.18708444 -0.1134234 -0.04595638 0.6486581
000280 23 a0 03 bf b1 15 5d bd 2e 1e 43 be b3 94 35 bd
       -0.51416224 -0.053975765 -0.19054481 -0.044331264
000290 1b 5b 91 3d eb d5 b1 bd 5d 2b fa be 26 cc b8 bd
       0.07097455 -0.0868338 -0.4886121 -0.09023313
0002a0 0b fd 8b bd 1f 35 1c bd 45 00 4b bd ba 7c 11 3e
       -0.068353735 -0.038136598 -0.049560804 0.14207736
0002b0 b7 f2 28 bf bf 53 b6 bc 85 15 c4 bc 54 36 d1 be
       -0.65995353 -0.02225673 -0.023936043 -0.40861762
0002c0 4b 24 0a bd e0 42 ac bd 77 33 a8 bd 3b 1b d9 bd
       -0.033726018 -0.08411193 -0.08212941 -0.10600897
0002d0 ef 56 64 be f7 7d f9 bb cb 66 d4 bd 62 a1 68 3f
       -0.22298788 -0.007613893 -0.10371169 0.9087125
0002e0 16 f3 89 bd 9c 0a 4d be 3e 3a 25 bf 99 84 8a bd
       -0.06735818 -0.20023578 -0.64541996 -0.06763572
0002f0 3a c1 e1 3d 12 42 0c be dd 83 89 3e 9a 1e 3b bc
       0.11023183 -0.13697079 0.26858416 -0.01142087
000300 8c 18 c9 bd 2d 2b 35 bf 61 6f 69 3e cd 42 78 bd
       -0.09819135 -0.70769006 0.22796394 -0.06061058
000310 0d a3 9d bd a0 b9 bd bd 46 87 97 bd 23 de cf bd
       -0.07697115 -0.09263921 -0.07398848 -0.10149791
000320 4c 6f a0 bc b0 86 98 bd 3b 66 82 bd 1e 35 9d bd
       -0.01958432 -0.074475646 -0.06367155 -0.07676147
000330 63 1a 3c bf 0f 94 84 bc 4b de f7 3e 9d 3d cc 3c
       -0.7347776 -0.016183881 0.48411784 0.024931723
000340 1c 53 54 be 90 fb 94 bd f1 4c f8 3d a1 d0 73 bc
       -0.20734829 -0.07274544 0.121240504 -0.014881284
000350 7d 4a 1f bf 56 f5 8a bd 5a 6d 33 be 60 d2 0f bd
       -0.62223035 -0.06785075 -0.17522183 -0.03511274
000360 2c c4 f9 be 07 9b 86 3d 87 c6 e2 bd c4 0d 42 3e
       -0.4878248 0.06572538 -0.11073022 0.18950564
000370 92 4a 38 bd b0 fe a1 be e7 99 1c 3d ba c6 7b bd
       -0.04499299 -0.31639624 0.03823271 -0.061468817
000380 50 e8 37 bf 36 b5 05 bf 63 a0 79 bd aa f3 92 3d
       -0.71838856 -0.5222963 -0.060943972 0.071753815
000390 4a 96 a3 3e 77 8a 40 bf 19 85 aa bd 75 91 a1 bd
       0.319506 -0.7521128 -0.083261676 -0.07889072
0003a0 3e ad 9d be 2c bd 43 3e e1 36 8f be 89 67 49 3e
       -0.30796236 0.19115132 -0.27971557 0.19668402
0003b0 dd 86 f6 bd 13 01 56 bd 83 05 ac bc b3 27 17 be
       -0.12037442 -0.05224712 -0.020998722 -0.14761238
0003c0 5f 13 e1 bd 01 f9 3c bd 79 dc 1f bf 37 5c 92 bd
       -0.10990023 -0.046135906 -0.6244579 -0.07146495
0003d0 bb ca e1 bc 31 51 64 be c3 b2 2c bd 68 1e dc 3e
       -0.02756249 -0.22296597 -0.042162668 0.42991948
0003e0 82 a0 41 be e4 ac a8 bd 5c 43 03 be b5 1d 58 bf
       -0.18908885 -0.08236101 -0.12818664 -0.8442033
0003f0 d1 97 7d bd b2 92 56 bf 35 19 be bd b0 c0 25 be
       -0.06191236 -0.8381759 -0.092821516 -0.16186786

layer_3.weight f4 [4, 300]
000000 0f a0 b6 3c 67 e0 2b 3f 55 f6 20 3d 10 28 74 bc
       0.022293119 0.67139286 0.03929742 -0.01490213
000010 3f 2d 8d 3e 98 95 34 3f 10 89 69 bc da 5e d9 bd
       0.27573583 0.7054076 -0.01425387 -0.106137946
000020 a7 e3 17 bc b5 41 32 bf e9 49 a7 bc 11 1c d8 3c
       -0.009270585 -0.6963151 -0.020420985 0.02638057
000030 36 bd ca bc 85 dd ca 3b a4 48 42 bf cc 65 8d 3d
       -0.024748426 0.006190958 -0.7589209 0.06904182
000040 c6 32 27 3f 3e fa e2 3e 1f 99 3f bf 3a 59 53 3d
       0.6531185 0.44331545 -0.7484302 0.051598765
000050 cc e7 b1 be 1c 8a 77 3e e6 fc c2 bd f4 ca eb 3e
       -0.3474716 0.24173778 -0.09520893 0.46053278
000060 88 42 8d bd 3a 19 ec 3c 9a 72 7c be a7 5e 0f be
       -0.068974555 0.028820623 -0.24653092 -0.14000951
000070 6a f8 d7 bc 9d 7d 84 bc 0d 26 b7 be 48 7b 82 3f
       -0.02636357 -0.016173178 -0.35771218 1.0193872
000080 ea 34 a7 bf 63 e2 61 be 6b 8e 2b be 97 f3 1c be
       -1.3063023 -0.22059016 -0.16753547 -0.15327297
000090 38 26 93 3e 9c 0c 07 be 5a 2a 7b be cd d9 dd 3c
       0.28740096 -0.13188404 -0.24527875 0.027081395
0000a0 38 21 cf bc ce b3 d2 3f b8 ed 5d 3e 3c 03 2d be
       -0.025284395 1.6461122 0.21672714 -0.16895765
0000b0 5c 67 13 c0 4c f0 ab bc c5 a7 35 bd 67 ee 4b bf
       -2.3031836 -0.020988606 -0.04434945 -0.7966065
0000c0 14 94 34 bc c3 e4 92 3e 2c 3a 46 bd ef 47 3e bd
       -0.011021633 0.28690156 -0.04839532 -0.04645532
0000d0 9b 3b 48 3f f7 ed 6c 3c 7d 6b a2 3e 01 49 e2 bb
       0.7821595 0.014461032 0.31722632 -0.0069056754
0000e0 93 9b 07 bd 67 0c 39 bf 4e 79 f8 3d 56 19 f1 bc
       -0.03310735 -0.7228455 0.12132512 -0.029431026
0000f0 83 06 8f 3e bf 64 57 bd 3e a5 ba 3c 64 ce 51 be
       0.27934656 -0.052586313 0.022783872 -0.20488888
000100 b7 f5 2c bc a6 49 89 3e 5f 56 4b bb d0 08 68 3e
       -0.01055663 0.26814002 -0.0031026823 0.22659612
000110 d6 39 42 bc bb 42 f8 bd d6 33 7e 3d cf 0f 2d 3f
       -0.0118546095 -0.12122103 0.062061153 0.67602247
000120 b7 cc ea 3e d4 ef bf 3d df 00 8c 3e 05 20 74 bf
       0.4585931 0.093719155 0.27344415 -0.9536136
000130 f1 9b 13 bb 9f ab 88 3c 90 ae 88 3e 46 97 ac 3c
       -0.0022523368 0.016683398 0.2669568 0.021068227
000140 dc c6 02 be 2a 38 2d bf 17 fa 80 ba 6b b2 aa bc
       -0.12771171 -0.67663825 -0.0009840158 -0.02083703
000150 99 97 05 3d ba 26 2c 3f ca 59 30 3f 63 d7 a6 3d
       0.032615278 0.6724659 0.6888701 0.081465505
000160 5c ec 2c 3f e6 47 95 bd 5c 0a 27 be 68 04 b4 3c
       0.67548156 -0.07289104 -0.16312546 0.021974757
000170 79 a2 91 3e b2 43 16 3d d2 02 91 3e d9 af 21 3b
       0.2844427 0.036685653 0.28322464 0.0024671464
000180 5a 30 23 bd 50 4d 1f 3f 7d 7a f3 bc e4 9b 8b bd
       -0.039841034 0.62227345 -0.029721493 -0.06816843
000190 bb fa 0e 3e 96 fe 40 bf 82 a2 43 bc 26 f7 f8 bc
       0.13962834 -0.7538847 -0.0119406 -0.030391287
0001a0 7b 4e 75 bd 6e 29 a6 3e 2f d9 b2 3d 83 3a 96 bc
       -0.059889298 0.32453483 0.08732831 -0.018338447
0001b0 c2 30 24 3f 9e 5d 14 3e dd f2 aa be 71 70 d0 b9
       0.641369 0.14488837 -0.33388415 -0.00039756627
0001c0 97 14 d0 bc d2 22 8e ba c5 98 58 bf 1f ae 85 bd
       -0.025400443 -0.0010844117 -0.8460811 -0.065273516
0001d0 df 6a 38 3f 9b 4c db bc ed e8 dc 3c 78 a7 8f 3e
       0.7203807 -0.026769927 0.026966536 0.28057456
0001e0 7b 31 f3 bc c2 a8 dc 3e ab a0 79 bd 81 54 90 bc
       -0.02968668 0.43097502 -0.06094424 -0.01761842
0001f0 98 2d df 3d 47 0e 97 3d 7e 16 6e 3e 9f 29 9e 3d
       0.10897368 0.0737577 0.23250768 0.07722782
000200 45 f5 31 3e 7e 2a 03 3f 25 d5 3a bf 3a 20 67 3c
       0.17378719 0.5123671 -0.7298148 0.0141068045
000210 a9 90 e2 3e 59 07 87 bc f3 f9 0c 3e 85 82 45 bf
       0.44250992 -0.016482996 0.13767223 -0.7715228
000220 8c 1c 35 3e 77 c6 f8 bf 2b 48 b7 3b 58 f7 18 3e
       0.17686671 -1.9435567 0.00559332 0.14938104
000230 c8 a5 49 bf d0 8e a0 bc eb e5 a3 bd e3 39 93 bf
       -0.7876859 -0.019599348 -0.08002838 -1.1502041
000240 dd 50 23 bd e5 5f 76 bf ba 23 93 be 09 01 8c 3e
       -0.03987204 -0.96240073 -0.28738195 0.2734454
000250 ce a1 58 3e 45 c0 d2 3d b3 7a e9 3c e0 95 ba be
       0.21155474 0.10290579 0.02850089 -0.3644247
000260 40 df 1f be 28 2a bf 3c a4 9e 07 bd 75 ca 1c be
       -0.15612507 0.023335531 -0.033110276 -0.15311606
000270 fd 46 92 be ad 50 6f bd 50 a5 56 bc d7 da 04 c0
       -0.28569785 -0.058426548 -0.013100937 -2.075857
000280 ef 70 fc be 49 98 f7 bc 49 8f 5f be 27 be 85 3d
       -0.49304911 -0.030223982 -0.21832003 0.06530409
000290 1a e3 ea 3d 94 fd e8 3c f0 dc 65 bd 80 4b 83 be
       0.114690974 0.028441228 -0.056118906 -0.2564354
0002a0 a8 97 fe bc d3 22 80 bb dc 19 2f bd 34 27 0c bf
       -0.031078175 -0.0039104014 -0.04274927 -0.5474732
0002b0 f7 14 4e be 8e 22 fb 3d b7 ab c5 bc 66 4a 4a 3d
       -0.20125185 0.1226245 -0.024129732 0.049387358
0002c0 70 4d a9 bb e8 a4 d2 3c 1a 58 b1 bc 8d e8 28 3c
       -0.005166702 0.025713399 -0.021648455 0.010309351
0002d0 fd 4e cc 3e a8 43 26 bd a4 0f 19 bf b3 d8 ff bf
       0.39904013 -0.040591866 -0.5978949 -1.9988006
0002e0 ee bf 0e 3d d9 fa fb be 81 f8 33 bf 06 f6 f9 be
       0.034851007 -0.4921482 -0.7030106 -0.48820513
0002f0 ff 0b 97 3e f9 43 f6 3c 70 5f 53 be 68 9e c4 be
       0.2950134 0.030061709 -0.20641875 -0.38402104
000300 75 d4 a9 be 68 4b 95 3e 8c 0f f9 be 51 62 ac 3c
       -0.33169904 0.29159093 -0.48644674 0.021042975
000310 0f b2 8c bc 57 39 92 bd 73 fc 73 bd 15 71 c2 3d
       -0.017174749 -0.07139843 -0.059566926 0.09494225
000320 43 6a ea 3c db f4 3f 3d f5 72 f7 3e b7 02 c3 3a
       0.028615123 0.04686437 0.48329893 0.0014878128
000330 42 cc c7 be e5 98 bb bc 16 12 fe 3e 64 9a b3 3e
       -0.39023024 -0.022900054 0.49623173 0.35078728
000340 6b 09 0b 3e ff d6 99 3c a2 af 01 bd f6 26 9c bd
       0.13577811 0.018779276 -0.031661637 -0.07624619
000350 3f 57 8e 3e 75 dd 80 3d fb 7c e4 3c 44 99 9f 3c
       0.27800938 0.062922396 0.027891627 0.019482262
000360 30 35 8a 3e 9a b7 0a 3f b9 74 b6 3c cc d0 47 be
       0.26993704 0.54186404 0.022272455 -0.19513243
000370 e1 f3 98 3b 46 54 b7 be 44 b2 02 bf 93 5f 08 3e
       0.0046677445 -0.35806483 -0.5105326 0.13317709
000380 23 6e 54 3e 63 3d ab 3e 6c 4a d3 bb 3b 54 33 bf
       0.20745139 0.33445272 -0.0064480808 -0.700504
000390 2d 83 13 c0 ea e8 52 be 7d e1 69 bc 2a 8c fc ba
       -2.3048813 -0.20596662 -0.014274952 -0.0019267846
0003a0 23 3f da bd 54 b6 18 bf 0f 8e 40 bd 39 e9 ea 3e
       -0.106565736 -0.5965321 -0.047010478 0.4588106
0003b0 81 c1 38 bc a7 3b b0 3d 81 8f e5 3e e7 48 2d 3f
       -0.011276604 0.08605128 0.44836047 0.67689365
0003c0 c4 e7 89 be 5d 23 18 bd da 91 12 be 42 cd c2 ba
       -0.26934636 -0.0371431 -0.1431345 -0.0014862197
0003d0 72 21 d1 3c 97 8c 2f 3d 4a 5c cc bc d4 d9 cf bb
       0.025528643 0.042858686 -0.02494635 -0.006343106
0003e0 b2 85 ac 3e bf e7 50 bb c8 ba 27 bc c1 f5 ae 3e
       0.3369575 -0.0031876413 -0.010237403 0.3417187
0003f0 e3 2e 2f bd eb a4 cc 3e a2 ee 3d 3d 06 6a 24 3f
       -0.042769324 0.39969572 0.046370156 0.6422428

layer_3.bias f4 [4]
000000 a2 94 ea 3e ce 56 e4 3e ad b2 ce be 05 f6 36 3d
       0.45816523 0.44597477 -0.40370694 0.044668216
